src/topic_model_ckpt/topic_embeddings.safetensors (safetensors, 136792 bytes, 1 tensors)

topic_embeddings f4 [89, 384]
-0.008111637 -0.02032982 0.010262692 0.024806108 -0.0033388454 -0.013002217 0.015330428 0.025357654
-0.02436382 -0.033089887 -0.008082327 -0.015702022 -0.021623135 0.017810091 -0.011042364 -0.013769329
0.012564478 0.00080518436 -0.013460341 0.012229236 0.0021728617 0.012514982 0.02329425 -0.005707432
-0.024107272 0.000328594 0.009735576 -0.0062579145 0.0038505998 -0.011130068 -0.005262634 0.007500878
-0.00051938434 -0.02216663 -0.00532812 0.006398675 -0.019566366 0.032243513 0.0112081785 0.0012873336
0.012908484 0.0049754404 0.005741124 0.007038285 0.013747489 0.00063117064 -0.015825683 0.002648211
0.034490697 0.01948064 0.008460995 -0.03326495 0.019281171 0.015406985 0.0022080943 -0.0030403961
-0.04363586 -0.011159423 -0.008492693 0.012903527 -0.015556316 0.0024369203 0.009030662 -0.003996676
0.020152267 -0.004465157 -0.0038076288 -0.0013430382 0.037863083 0.022068396 0.0023821397 0.00916883
-0.0034668958 0.01741006 -0.0037933541 0.016141381 0.0044566346 -0.012725753 0.029085197 0.024775488
-0.01381444 0.020804528 0.0134286685 0.017887747 -0.0061203716 0.017173054 0.01654813 0.011564844
-0.041817367 -0.008031547 0.010637721 -0.0117596 0.005191308 0.010268969 0.008486734 -0.0066975756
0.001462564 -0.0054080426 -0.040312555 0.03251198 -0.01560933 -0.01706406 0.005544909 0.0069526564
0.0014989822 -0.010851161 -0.007223836 0.0008444593 0.0057377415 0.022872772 -0.0070355632 0.012577541
0.010370999 0.0068089115 -0.017016686 0.001206926 0.010542304 0.012313887 -0.02525473 0.025065018
-0.038354408 -0.0030895255 -0.0010072866 -0.018300736 0.010004206 -0.01757142 0.007330564 0.002516693
0.0006134165 -0.009073139 0.018496597 0.007549237 0.010922062 0.009474707 -0.0032817596 -0.030377807
0.028812695 -0.009334972 0.014179846 -0.0179415 -0.011637325 0.0038989915 -0.008262537 0.0079162065
0.017066594 0.013221698 0.003062962 0.0024771895 -0.015827425 -0.017285656 0.002063784 -0.004581989
-0.016754871 0.009150223 -0.01709979 -0.02651867 0.013076198 -0.0077012377 0.012187157 -0.005702708
0.00020578918 -0.026598442 -0.030413674 0.0013093489 0.027907275 -0.0074370196 -0.0024737911 -0.0015892792
-0.012019125 0.007610948 0.0023593605 0.0125119025 0.016965363 -0.00043007894 -0.012034563 0.004052338
-0.0124984095 -0.0029994764 -0.002698211 0.0032403655 0.03095008 -0.011184207 -0.029781105 -0.008321055
-0.0009638145 -0.02488444 0.0013839006 0.023493605 0.043645117 -0.0019993866 0.0066247913 -0.003863271
-0.028704809 -0.026177902 -0.0052511655 0.0036583696 -0.019571971 0.013583047 -0.0029694969 -0.014339352
0.02612021 -0.0068975776 -0.007847948 -0.004895846 0.015935257 -0.011801052 -0.0062167025 -0.038090087
0.032729127 -0.012797462 0.01663442 0.037466317 0.018366458 0.008509291 -0.029715298 0.01126529
0.016468937 -0.02500719 -0.013798987 0.0059396857 -3.8927003e-05 -0.01449756 0.0030878647 7.315116e-33
-0.0021835386 -0.0089852335 0.018185394 0.017189534 0.018507507 0.012598996 0.011672527 0.021894487
-0.004582724 0.0064764456 0.014104486 -0.022032956 -0.024996245 -0.02232459 0.011251981 0.021045147
-0.007108914 0.018033784 -0.017641054 0.0036200671 -0.022298142 0.020159563 0.012075584 0.0002861525
-0.026237322 0.0094273565 0.0029374692 -0.005313707 -0.015284392 -0.005745437 0.0119853085 0.015034334
00000000: ace6 04bc b98a a6bc da24 283c 2e36 cb3c
00000010: 88d0 5abb 4007 55bc 7a2c 7b3c dbba cf3c
00000020: a296 c7bc 4389 07bd bd6b 04bc 87a1 80bc
00000030: 0023 b1bc 78e6 913c 08eb 34bc c098 61bc
00000040: 3edb 4d3c 0213 533a c388 5cbc 225d 483c
00000050: 9266 0e3b a40b 4d3c 95d3 be3c 6905 bbbb
00000060: 9d7c c5bc 2447 ac39 f781 1f3c 310f cdbb
00000070: 585a 7c3b e45a 36bc 2c72 acbb edc9 f53b
00000080: 4b27 08ba cb96 b5bc 8397 aebb faab d13b
00000090: a549 a0bc c611 043d 82a2 373c bfbb a83a
000000a0: 1b7e 533c 0509 a33b 0a20 bc3b 6aa1 e63b
000000b0: 263d 613c 2575 253a dda4 81bc 9c8d 2d3b
000000c0: 1e46 0d3d dd95 9f3c fc9f 0a3c d440 08bd
000000d0: 8cf3 9d3c 946d 7c3c adb5 103b 6241 47bb
000000e0: 84bb 32bd 03d6 36bc f024 0bbc 5169 533c
000000f0: ebdf 7ebc bdb4 1f3b 57f5 133c 8cf6 82bb
00000100: 5e16 a53c 7450 92bb 6989 79bb e208 b0ba
00000110: 5216 1b3d c8c8 b43c ac1d 1c3b dc38 163c
00000120: dc34 63bb 8b9f 8e3c ec99 78bb ee3a 843c
00000130: f608 923b ad7f 50bc 1444 ee3c f7f5 ca3c
00000140: f655 62bc 426e aa3c eb03 5c3c 5389 923c
00000150: 668d c8bb 81ae 8c3c f28f 873c 797a 3d3c
00000160: b048 2bbd c096 03bc d649 2e3c 56ab 40bc
00000170: d91b aa3b 2e3f 283c f10b 0b3c 5677 dbbb
00000180: 81b3 bf3a f335 b1bb c71e 25bd 482b 053d
00000190: 46be 7fbc edc9 8bbc 11b2 b53b 1cd3 e33b
000001a0: 7f79 c43a 11c9 31bc eeb5 ecbb b45e 5d3a
000001b0: aa03 bc3b ae5f bb3c 958a e6bb 0812 4e3c
000001c0: 1feb 293c 4a1d df3b 9466 8bbc b731 9e3a
000001d0: a1b9 2c3c 2fc0 493c 02e3 cebc 2755 cd3c
000001e0: 8319 1dbd a379 4abb ee06 84ba 6deb 95bc
000001f0: aee8 233c f0f1 8fbc 3a35 f03b 1aef 243b
00000200: afcd 203a 81a7 14bc 2d86 973c 975f f73b
00000210: 73f2 323c cd3b 1b3c ca12 57bb e1da f8bc
00000220: 9a08 ec3c b6f1 18bc 9652 683c 0dfa 92bc
00000230: 7baa 3ebc 3986 7f3b 985f 07bc fab2 013c
00000240: 3ecf 8b3c d29f 583c fabb 483b 5858 223b
00000250: 84a8 81bc a69a 8dbc 8d40 073b 8224 96bb
00000260: 8341 89bc d1ea 153c dc14 8cbc af3d d9bc
00000270: 8d3d 563c aa5a fcbb a4ac 473c c8dd babb
00000280: 1dc9 5739 fae4 d9bc 1926 f9bc 759e ab3a
00000290: cc9d e43c 3eb2 f3bb 541f 22bb 5c4f d0ba
000002a0: ddeb 44bc 4265 f93b 809f 1a3b b9fe 4c3c
000002b0: f2fa 8a3c 387c e1b9 9e2c 45bc 7ac9 843b
000002c0: 21c6 4cbc dd92 44bb 78d4 30bb 505c 543b
000002d0: 068b fd3c f73d 37bc 81f7 f3bc 0955 08bc
000002e0: 7fa8 7cba 74da cbbc 0064 b53a a975 c03c
000002f0: 39c5 323d 2408 03bb c714 d93b ef2e 7dbb
00000300: 5926 ebbc 0a73 d6bc f811 acbb 42c1 6f3b
00000310: 6655 a0bc 6e8b 5e3c e49b 42bb 9aef 6abc
00000320: 0dfa d53c 1305 e2bb ae94 00bc 556d a0bb
00000330: a88a 823c 3359 41bc 7bb5 cbbb 5a04 1cbd
00000340: fa0e 063d 72ac 51bc e844 883c 4876 193d
00000350: 4175 963c 8e6a 0b3c 7f6d f3bc 0d92 383c
00000360: dde9 863c e1db ccbc 2515 62bc b2a1 c23b
00000370: 8d45 23b8 2d87 6dbc c65d 4a3b d4ed 170a
00000380: b319 0fbb cd36 13bc 89f9 943c 11d1 8c3c
00000390: 0e9d 973c 056c 4e3c 203e 3f3c 115c b33c
000003a0: ad2a 96bb 5d38 d43b 8116 673c 757e b4bc
000003b0: edc4 ccbc 0fe2 b6bc 3b5a 383c df66 ac3c
000003c0: e5f1 e8bb 96bb 933c f983 90bc a63e 6d3b
000003d0: 98aa b6bc ab25 a53c acd8 453c bd06 9639
000003e0: a7ef d6bc 3375 1a3c 8e82 403b 9b1e aebb
000003f0: 636b 7abc 3844 bcbb 075e 443c 9152 763c
